python/xor_model.pth (torch, 3761 bytes, 4 tensors)

weight f4 [4, 2]
00000000: 92c3 0f40 5d76 0ec0 46f1 08c0 b6ea 0b40
00000010: 705e a2bd c376 523e e956 023e 3185 e3bd
2.2463117 -2.2259743 -2.1397262 2.1862006 -0.07928169 0.20553117 0.12728466 -0.111093886

bias f4 [4]
00000000: ca8c 953f 4981 8d3f 22a2 40bf 5d79 2fbf
1.168359 1.105508 -0.75247395 -0.6854456

weight f4 [2, 4]
00000000: 8a13 f7bf 1baf edbf 9125 99be f9a9 1bbf
00000010: d54a f03f cc4f f63f 8820 013f fce5 a5bd
-1.9302838 -1.8569063 -0.29911473 -0.6080623 1.8772837 1.9243102 0.50440264 -0.08100507

bias f4 [2]
00000000: 8a0d a73f 8fc1 abbf
1.3051007 -1.3418444
