python/xor_model_weights.pth (torch, 2625 bytes, 4 tensors)

fc1.weight f4 [4, 2]
00000000: 8de8 d83f 497a a73f d13d a8bf 9f55 67bf
00000010: 45b1 84bf 99e2 0540 df16 21c0 6c71 0040
1.6945969 1.3084193 -1.3143865 -0.9036502 -1.0366598 2.0919554 -2.517021 2.0069227

fc1.bias f4 [4]
00000000: ee6c 07bd c05b 87be 99e7 553e 2d23 85bf
-0.033062868 -0.26437187 0.20889129 -1.040136

fc2.weight f4 [2, 4]
00000000: a28c b9bf fdfb 1e3f a27e c23f 0f8d cabf
00000010: 87d0 533f c37b 4fbf 50d1 f7bf dd67 fc3f
-1.4496043 0.62103254 1.5194895 -1.5824298 0.8274006 -0.8104822 -1.9360752 1.9719197

fc2.bias f4 [2]
00000000: 85fd d1be 3e1d 64be
-0.41013733 -0.2227678
